…
del.add(Activation('sigmoid'))\ndeep_model.compile(loss='binary_crossentropy', optimizer='adam')"
        },
        {
            "cell_type": "code",
            "execution_count": 29,
            "metadata": {},
            "outputs": [
                {
                    "name": "stdout",
                    "output_type": "stream",
                    "text": "_________________________________________________________________\nLayer (type)                 Output Shape              Param #   \n=================================================================\ndense_1 (Dense)              (None, 256)               15104     \n_________________________________________________________________\nactivation_1 (Activation)    (None, 256)               0         \n_________________________________________________________________\ndropout_1 (Dropout)          (None, 256)               0         \n_________________________________________________________________\ndense_2 (Dense)              (None, 256)               65792     \n_________________________________________________________________\nactivation_2 (Activation)    (None, 256)               0         \n_________________________________________________________________\ndropout_2 (Dropout)          (None, 256)               0         \n_________________________________________________________________\ndense_3 (Dense)              (None, 2)                 514       \n_________________________________________________________________\nactivation_3 (Activation)    (None, 2)                 0         \n=================================================================\nTotal params: 81,410\nTrainable params: 81,410\nNon-trainable params: 0\n_________________________________________________________________\n"
                }
            ],
            "source": "#Model summary\ndeep_model.summary()"
        },
        {
            "cell_type": "code",
            "execution_count": 30,
…
